…
can use to calculate the total number of parameters in a PyTorch model. Here\u2019s how you can use it:</p> <pre><code>from torchsummary import summary\n\n# Instantiate the network\nmodel = MyNetwork(in_channels=1, out_classes=10)\nmodel = model.to(\"cuda:0\")\n# Print the model summary\nsummary(model, (1, 28, 28))  # Provide an example input size\n\n\"\"\"\nOutput:\n\n----------------------------------------------------------------\n        Layer (type)               Output Shape         Param #\n================================================================\n            Conv2d-1           [-1, 64, 28, 28]           1,792\n       BatchNorm2d-2           [-1, 64, 28, 28]             128\n              ReLU-3           [-1, 64, 28, 28]               0\n           Dropout-4           [-1, 64, 28, 28]               0\n            Linear-5                  [-1, 128]       6,422,656\n              ReLU-6                  [-1, 128]               0\n           Dropout-7                  [-1, 128]               0\n            Linear-8                   [-1, 10]           1,290\n           Softmax-9                   [-1, 10]               0\n================================================================\nTotal params: 6,425,866\nTrainable params: 6,425,866\nNon-trainable params: 0\n----------------------------------------------------------------\nInput size (MB): 0.01\nForward/backward pass size (MB): 1.53\nParams size (MB): 24.51\nEstimated Total Size (MB): 26.06\n----------------------------------------------------------------\n
…
